  "storage" : "feature_extraction.espresso.weights",
  "analyses" : {
  },
  "properties" : {
  },
  "configurations" : {
    "square_320x320" : {
      "input_shapes" : {
        "t_0" : {
          "k" : 3,
          "w" : 320,
          "n" : 1,
          "h" : 320
        }
      }
    },
    "portrait_320x448" : {
      "input_shapes" : {
        "t_0" : {
          "k" : 3,
          "w" : 320,
          "n" : 1,
          "h" : 448
        }
      }
    },
    "landscape_448x320" : {
      "input_shapes" : {
        "t_0" : {
          "k" : 3,
          "w" : 448,
          "n" : 1,
          "h" : 320
        }
      }
    },
    "landscape_1024x432" : {
      "input_shapes" : {
        "t_0" : {
          "k" : 3,
          "w" : 1024,
          "n" : 1,
          "h" : 432
        }
      }
    }
  },
  "format_version" : 200,
  "layers" : [
    {
      "pad_r" : 1,
      "fused_relu" : 0,
      "fused_tanh" : 0,
      "debug_info" : "",
      "pad_fill_mode" : 0,
      "pad_b" : 1,
      "pad_l" : 1,
      "top" : "t_1",
      "blob_weights" : 3,
      "K" : 3,
      "blob_biases" : 1,
      "stride_x" : 2,
      "name" : "convolution_0",
      "has_batch_norm" : 0,
      "type" : "convolution",
      "n_groups" : 1,
      "pad_t" : 1,
      "stride_y" : 2,
      "has_biases" : 1,
      "C" : 16,
      "bottom" : "t_0",
      "weights" : {
      },
      "Nx" : 3,
      "pad_mode" : 0,
      "pad_value" : 0,
      "Ny" : 3,
      "n_parallel" : 1
    },
    {
      "alpha" : 0.10000000149011612,
      "bottom" : "t_1",
      "weights" : {
      },
      "mode" : 2,
      "debug_info" : "",
      "top" : "t_2",
      "type" : "activation",
      "name" : "activation_0"
    },
    {
      "pad_r" : 1,
      "fused_relu" : 0,
      "fused_tanh" : 0,
      "debug_info" : "",
      "pad_fill_mode" : 0,
      "pad_b" : 1,
      "pad_l" : 1,
      "top" : "t_3",
      "blob_weights" : 7,
      "K" : 16,
      "blob_biases" : 5,
      "name" : "convolution_1",
      "has_batch_norm" : 0,
      "type" : "convolution",
      "n_groups" : 1,
      "pad_t" : 1,
      "has_biases" : 1,
      "C" : 16,
      "bottom" : "t_2",
      "weights" : {
      },
      "Nx" : 3,
      "pad_mode" : 0,
      "pad_value" : 0,
      "Ny" : 3,
      "n_parallel" : 1
    },
    {
      "bottom" : "t_3",
      "weights" : {
      },
      "mode" : 0,
      "debug_info" : "",
      "top" : "t_4",
      "type" : "activation",
      "name" : "activation_1"
    },
    {
      "weights" : {
      },
      "debug_info" : "",
      "top" : "t_5",
      "type" : "concat",
      "name" : "concat_0",
      "bottom" : "t_2,t_4"
    },
    {
      "pad_r" : 1,
      "fused_relu" : 0,
      "fused_tanh" : 0,
      "debug_info" : "",
      "pad_fill_mode" : 0,
      "pad_b" : 1,
      "pad_l" : 1,
      "top" : "t_6",
      "blob_weights" : 11,
      "K" : 32,
      "blob_biases" : 9,
      "name" : "convolution_2",
      "has_batch_norm" : 0,
      "type" : "convolution",
      "n_groups" : 1,
      "pad_t" : 1,
      "has_biases" : 1,
      "C" : 16,
      "bottom" : "t_5",
      "weights" : {
      },
      "Nx" : 3,
      "pad_mode" : 0,
      "pad_value" : 0,
      "Ny" : 3,
      "n_parallel" : 1
    },
    {
      "bottom" : "t_6",
      "weights" : {
      },
      "mode" : 0,
      "debug_info" : "",
      "top" : "t_7",
      "type" : "activation",
      "name" : "activation_2"
    },
    {
      "weights" : {
      },
      "debug_info" : "",
      "top" : "t_8",
      "type" : "concat",
      "name" : "concat_1",
      "bottom" : "t_5,t_7"
    },
    {
      "pad_r" : 1,
      "fused_relu" : 0,
      "fused_tanh" : 0,
      "debug_info" : "",
      "pad_fill_mode" : 0,
      "pad_b" : 1,
      "pad_l" : 1,
      "top" : "t_9",
      "blob_weights" : 15,
      "K" : 48,
      "blob_biases" : 13,
      "name" : "convolution_3",
      "has_batch_norm" : 0,
      "type" : "convolution",
      "n_groups" : 1,
      "pad_t" : 1,
      "has_biases" : 1,
      "C" : 16,
      "bottom" : "t_8",
      "weights" : {
      },
      "Nx" : 3,
      "pad_mode" : 0,
      "pad_value" : 0,
      "Ny" : 3,
      "n_parallel" : 1
    },
    {
      "bottom" : "t_9",
      "weights" : {
      },
      "mode" : 0,
      "debug_info" : "",
      "top" : "t_10",
      "type" : "activation",
      "name" : "activation_3"
    },
    {
      "weights" : {
      },
      "debug_info" : "",
      "top" : "t_11",
      "type" : "concat",
      "name" : "concat_2",
      "bottom" : "t_8,t_10"
    },
    {
      "pad_r" : 1,
      "fused_relu" : 0,
      "fused_tanh" : 0,
      "debug_info" : "",
      "pad_fill_mode" : 0,
      "pad_b" : 1,
      "pad_l" : 1,
      "top" : "t_12",
      "blob_weights" : 19,
      "K" : 64,
      "blob_biases" : 17,
      "name" : "convolution_4",
      "has_batch_norm" : 0,
      "type" : "convolution",
      "n_groups" : 1,
      "pad_t" : 1,
      "has_biases" : 1,
      "C" : 16,
      "bottom" : "t_11",
      "weights" : {
      },
      "Nx" : 3,
      "pad_mode" : 0,
      "pad_value" : 0,
      "Ny" : 3,
      "n_parallel" : 1
    },
    {
      "bottom" : "t_12",
      "weights" : {
      },
      "mode" : 0,
      "debug_info" : "",
      "top" : "t_13",
      "type" : "activation",
      "name" : "activation_4"
    },
    {
      "weights" : {
      },
      "debug_info" : "",
      "top" : "t_14",
      "type" : "concat",
      "name" : "concat_3",
      "bottom" : "t_11,t_13"
    },
    {
      "pad_r" : 1,
      "fused_relu" : 0,
      "fused_tanh" : 0,
      "debug_info" : "",
      "pad_fill_mode" : 0,
      "pad_b" : 1,
      "pad_l" : 1,
      "top" : "t_15",
      "blob_weights" : 23,
      "K" : 80,
      "blob_biases" : 21,
      "name" : "convolution_5",
      "has_batch_norm" : 0,
      "type" : "convolution",
      "n_groups" : 1,
      "pad_t" : 1,
      "has_biases" : 1,
      "C" : 16,
      "bottom" : "t_14",
      "weights" : {
      },
      "Nx" : 3,
      "pad_mode" : 0,
      "pad_value" : 0,
      "Ny" : 3,
      "n_parallel" : 1
    },
    {
      "bottom" : "t_15",
      "weights" : {
      },
      "mode" : 0,
      "debug_info" : "",
      "top" : "t_16",
      "type" : "activation",
      "name" : "activation_5"
    },
    {
      "weights" : {
      },
      "debug_info" : "",
      "top" : "t_17",
      "type" : "concat",
      "name" : "concat_4",
      "bottom" : "t_14,t_16"
    },
    {
      "pad_r" : 0,
      "fused_relu" : 0,
      "fused_tanh" : 0,
      "debug_info" : "",
      "pad_fill_mode" : 0,
      "pad_b" : 0,
      "pad_l" : 0,
      "top" : "t_18",
      "blob_weights" : 27,
      "K" : 96,
      "blob_biases" : 25,
      "name" : "convolution_6",
      "has_batch_norm" : 0,
      "type" : "convolution",
      "n_groups" : 1,
      "pad_t" : 0,
      "has_biases" : 1,
      "C" : 16,
      "bottom" : "t_17",
      "weights" : {
      },
      "Nx" : 1,
      "pad_mode" : 0,
      "pad_value" : 0,
      "Ny" : 1,
      "n_parallel" : 1
    },
    {
      "bottom" : "t_18,t_2",
      "alpha" : 1,
      "operation" : 0,
      "weights" : {
      },
      "fused_relu" : 0,
      "debug_info" : "",
      "top" : "t_19",
      "type" : "elementwise",
      "name" : "elementwise_0",
      "beta" : 0,
      "attributes" : {
        "is_output" : 1
      }
    },
    {
      "pad_r" : 1,
      "fused_relu" : 0,
      "fused_tanh" : 0,
      "debug_info" : "",
      "pad_fill_mode" : 0,
      "pad_b" : 1,
      "pad_l" : 1,
      "top" : "t_20",
      "blob_weights" : 31,
      "K" : 16,
      "blob_biases" : 29,
      "stride_x" : 2,
      "name" : "convolution_7",
      "has_batch_norm" : 0,
      "type" : "convolution",
      "n_groups" : 1,
      "pad_t" : 1,
      "stride_y" : 2,
      "has_biases" : 1,
      "C" : 32,
      "bottom" : "t_19",
      "weights" : {
      },
      "Nx" : 3,
      "pad_mode" : 0,
      "pad_value" : 0,
      "Ny" : 3,
      "n_parallel" : 1
    },
    {
      "alpha" : 0.10000000149011612,
      "bottom" : "t_20",
      "weights" : {
      },
      "mode" : 2,
      "debug_info" : "",
      "top" : "t_21",
      "type" : "activation",
      "name" : "activation_6"
    },
    {
      "pad_r" : 1,
      "fused_relu" : 0,
      "fused_tanh" : 0,
      "debug_info" : "",
      "pad_fill_mode" : 0,
      "pad_b" : 1,
      "pad_l" : 1,
      "top" : "t_22",
      "blob_weights" : 35,
      "K" : 32,
      "blob_biases" : 33,
      "name" : "convolution_8",
      "has_batch_norm" : 0,
      "type" : "convolution",
      "n_groups" : 1,
      "pad_t" : 1,
      "has_biases" : 1,
      "C" : 16,
      "bottom" : "t_21",
      "weights" : {
      },
      "Nx" : 3,
      "pad_mode" : 0,
      "pad_value" : 0,
      "Ny" : 3,
      "n_parallel" : 1
    },
    {
      "bottom" : "t_22",
      "weights" : {
      },
      "mode" : 0,
      "debug_info" : "",
      "top" : "t_23",
      "type" : "activation",
      "name" : "activation_7"
    },
    {
      "weights" : {
      },
      "debug_info" : "",
      "top" : "t_24",
      "type" : "concat",
      "name" : "concat_5",
      "bottom" : "t_21,t_23"
    },
    {
      "pad_r" : 1,
      "fused_relu" : 0,
      "fused_tanh" : 0,
      "debug_info" : "",
      "pad_fill_mode" : 0,
      "pad_b" : 1,
      "pad_l" : 1,
      "top" : "t_25",
      "blob_weights" : 39,
      "K" : 48,
      "blob_biases" : 37,
      "name" : "convolution_9",
      "has_batch_norm" : 0,
      "type" : "convolution",
      "n_groups" : 1,
      "pad_t" : 1,
      "has_biases" : 1,
      "C" : 16,
      "bottom" : "t_24",
      "weights" : {
      },
      "Nx" : 3,
      "pad_mode" : 0,
      "pad_value" : 0,
      "Ny" : 3,
      "n_parallel" : 1
    },
    {
      "bottom" : "t_25",
      "weights" : {
      },
      "mode" : 0,
      "debug_info" : "",
      "top" : "t_26",
      "type" : "activation",
      "name" : "activation_8"
    },
    {
      "weights" : {
      },
      "debug_info" : "",
      "top" : "t_27",
      "type" : "concat",
      "name" : "concat_6",
      "bottom" : "t_24,t_26"
    },
    {
      "pad_r" : 1,
      "fused_relu" : 0,
      "fused_tanh" : 0,
      "debug_info" : "",
      "pad_fill_mode" : 0,
      "pad_b" : 1,
      "pad_l" : 1,
      "top" : "t_28",
      "blob_weights" : 43,
      "K" : 64,
      "blob_biases" : 41,
      "name" : "convolution_10",
      "has_batch_norm" : 0,
      "type" : "convolution",
      "n_groups" : 1,
      "pad_t" : 1,
      "has_biases" : 1,
      "C" : 16,
      "bottom" : "t_27",
      "weights" : {
      },
      "Nx" : 3,
      "pad_mode" : 0,
      "pad_value" : 0,
      "Ny" : 3,
      "n_parallel" : 1
    },
    {
      "bottom" : "t_28",
      "weights" : {
      },
      "mode" : 0,
      "debug_info" : "",
      "top" : "t_29",
      "type" : "activation",
      "name" : "activation_9"
    },
    {
      "weights" : {
      },
      "debug_info" : "",
      "top" : "t_30",
      "type" : "concat",
      "name" : "concat_7",
      "bottom" : "t_27,t_29"
    },
    {
      "pad_r" : 1,
      "fused_relu" : 0,
      "fused_tanh" : 0,
      "debug_info" : "",
      "pad_fill_mode" : 0,
      "pad_b" : 1,
      "pad_l" : 1,
      "top" : "t_31",
      "blob_weights" : 47,
      "K" : 80,
      "blob_biases" : 45,
      "name" : "convolution_11",
      "has_batch_norm" : 0,
      "type" : "convolution",
      "n_groups" : 1,
      "pad_t" : 1,
      "has_biases" : 1,
      "C" : 16,
      "bottom" : "t_30",
      "weights" : {
      },
      "Nx" : 3,
      "pad_mode" : 0,
      "pad_value" : 0,
      "Ny" : 3,
      "n_parallel" : 1
    },
    {
      "bottom" : "t_31",
      "weights" : {
      },
      "mode" : 0,
      "debug_info" : "",
      "top" : "t_32",
      "type" : "activation",
      "name" : "activation_10"
    },
    {
      "weights" : {
      },
      "debug_info" : "",
      "top" : "t_33",
      "type" : "concat",
      "name" : "concat_8",
      "bottom" : "t_30,t_32"
    },
    {
      "pad_r" : 1,
      "fused_relu" : 0,
      "fused_tanh" : 0,
      "debug_info" : "",
      "pad_fill_mode" : 0,
      "pad_b" : 1,
      "pad_l" : 1,
      "top" : "t_34",
      "blob_weights" : 51,
      "K" : 96,
      "blob_biases" : 49,
      "name" : "convolution_12",
      "has_batch_norm" : 0,
      "type" : "convolution",
      "n_groups" : 1,
      "pad_t" : 1,
      "has_biases" : 1,
      "C" : 16,
      "bottom" : "t_33",
      "weights" : {
      },
      "Nx" : 3,
      "pad_mode" : 0,
      "pad_value" : 0,
      "Ny" : 3,
      "n_parallel" : 1
    },
    {
      "bottom" : "t_34",
      "weights" : {
      },
      "mode" : 0,
      "debug_info" : "",
      "top" : "t_35",
      "type" : "activation",
      "name" : "activation_11"
    },
    {
      "weights" : {
      },
      "debug_info" : "",
      "top" : "t_36",
      "type" : "concat",
      "name" : "concat_9",
      "bottom" : "t_33,t_35"
    },
    {
      "pad_r" : 0,
      "fused_relu" : 0,
      "fused_tanh" : 0,
      "debug_info" : "",
      "pad_fill_mode" : 0,
      "pad_b" : 0,
      "pad_l" : 0,
      "top" : "t_37",
      "blob_weights" : 55,
      "K" : 112,
      "blob_biases" : 53,
      "name" : "convolution_13",
      "has_batch_norm" : 0,
      "type" : "convolution",
      "n_groups" : 1,
      "pad_t" : 0,
      "has_biases" : 1,
      "C" : 32,
      "bottom" : "t_36",
      "weights" : {
      },
      "Nx" : 1,
      "pad_mode" : 0,
      "pad_value" : 0,
      "Ny" : 1,
      "n_parallel" : 1
    },
    {
      "bottom" : "t_37,t_21",
      "alpha" : 1,
      "operation" : 0,
      "weights" : {
      },
      "fused_relu" : 0,
      "debug_info" : "",
      "top" : "t_38",
      "type" : "elementwise",
      "name" : "elementwise_1",
      "beta" : 0,
      "attributes" : {
        "is_output" : 1
      }
    },
    {
      "pad_r" : 1,
      "fused_relu" : 0,
      "fused_tanh" : 0,
      "debug_info" : "",
      "pad_fill_mode" : 0,
      "pad_b" : 1,
      "pad_l" : 1,
      "top" : "t_39",
      "blob_weights" : 59,
      "K" : 32,
      "blob_biases" : 57,
      "stride_x" : 2,
      "name" : "convolution_14",
      "has_batch_norm" : 0,
      "type" : "convolution",
      "n_groups" : 1,
      "pad_t" : 1,
      "stride_y" : 2,
      "has_biases" : 1,
      "C" : 64,
      "bottom" : "t_38",
      "weights" : {
      },
      "Nx" : 3,
      "pad_mode" : 0,
      "pad_value" : 0,
      "Ny" : 3,
      "n_parallel" : 1
    },
    {
      "alpha" : 0.10000000149011612,
      "bottom" : "t_39",
      "weights" : {
      },
      "mode" : 2,
      "debug_info" : "",
      "top" : "t_40",
      "type" : "activation",
      "name" : "activation_12"
    },
    {
      "pad_r" : 1,
      "fused_relu" : 0,
      "fused_tanh" : 0,
      "debug_info" : "",
      "pad_fill_mode" : 0,
      "pad_b" : 1,
      "pad_l" : 1,
      "top" : "t_41",
      "blob_weights" : 63,
      "K" : 64,
      "blob_biases" : 61,
      "name" : "convolution_15",
      "has_batch_norm" : 0,
      "type" : "convolution",
      "n_groups" : 1,
      "pad_t" : 1,
      "has_biases" : 1,
      "C" : 16,
      "bottom" : "t_40",
      "weights" : {
      },
      "Nx" : 3,
      "pad_mode" : 0,
      "pad_value" : 0,
      "Ny" : 3,
      "n_parallel" : 1
    },
    {
      "bottom" : "t_41",
      "weights" : {
      },
      "mode" : 0,
      "debug_info" : "",
      "top" : "t_42",
      "type" : "activation",
      "name" : "activation_13"
    },
    {
      "weights" : {
      },
      "debug_info" : "",
      "top" : "t_43",
      "type" : "concat",
      "name" : "concat_10",
      "bottom" : "t_40,t_42"
    },
    {
      "pad_r" : 1,
      "fused_relu" : 0,
      "fused_tanh" : 0,
      "debug_info" : "",
      "pad_fill_mode" : 0,
      "pad_b" : 1,
      "pad_l" : 1,
      "top" : "t_44",
      "blob_weights" : 67,
      "K" : 80,
      "blob_biases" : 65,
      "name" : "convolution_16",
      "has_batch_norm" : 0,
      "type" : "convolution",
      "n_groups" : 1,
      "pad_t" : 1,
      "has_biases" : 1,
      "C" : 16,
      "bottom" : "t_43",
      "weights" : {
      },
      "Nx" : 3,
      "pad_mode" : 0,
      "pad_value" : 0,
      "Ny" : 3,
      "n_parallel" : 1
    },
    {
      "bottom" : "t_44",
      "weights" : {
      },
      "mode" : 0,
      "debug_info" : "",
      "top" : "t_45",
      "type" : "activation",
      "name" : "activation_14"
    },
    {
      "weights" : {
      },
      "debug_info" : "",
      "top" : "t_46",
      "type" : "concat",
      "name" : "concat_11",
      "bottom" : "t_43,t_45"
    },
    {
      "pad_r" : 1,
      "fused_relu" : 0,
      "fused_tanh" : 0,
      "debug_info" : "",
      "pad_fill_mode" : 0,
      "pad_b" : 1,
      "pad_l" : 1,
      "top" : "t_47",
      "blob_weights" : 71,
      "K" : 96,
      "blob_biases" : 69,
      "name" : "convolution_17",
      "has_batch_norm" : 0,
      "type" : "convolution",
      "n_groups" : 1,
      "pad_t" : 1,
      "has_biases" : 1,
      "C" : 16,
      "bottom" : "t_46",
      "weights" : {
      },
      "Nx" : 3,
      "pad_mode" : 0,
      "pad_value" : 0,
      "Ny" : 3,
      "n_parallel" : 1
    },
    {
      "bottom" : "t_47",
      "weights" : {
      },
      "mode" : 0,
      "debug_info" : "",
      "top" : "t_48",
      "type" : "activation",
      "name" : "activation_15"
    },
    {
      "weights" : {
      },
      "debug_info" : "",
      "top" : "t_49",
      "type" : "concat",
      "name" : "concat_12",
      "bottom" : "t_46,t_48"
    },
    {
      "pad_r" : 1,
      "fused_relu" : 0,
      "fused_tanh" : 0,
      "debug_info" : "",
      "pad_fill_mode" : 0,
      "pad_b" : 1,
      "pad_l" : 1,
      "top" : "t_50",
      "blob_weights" : 75,
      "K" : 112,
      "blob_biases" : 73,
      "name" : "convolution_18",
      "has_batch_norm" : 0,
      "type" : "convolution",
      "n_groups" : 1,
      "pad_t" : 1,
      "has_biases" : 1,
      "C" : 16,
      "bottom" : "t_49",
      "weights" : {
      },
      "Nx" : 3,
      "pad_mode" : 0,
      "pad_value" : 0,
      "Ny" : 3,
      "n_parallel" : 1
    },
    {
      "bottom" : "t_50",
      "weights" : {
      },
      "mode" : 0,
      "debug_info" : "",
      "top" : "t_51",
      "type" : "activation",
      "name" : "activation_16"
    },
    {
      "weights" : {
      },
      "debug_info" : "",
      "top" : "t_52",
      "type" : "concat",
      "name" : "concat_13",
      "bottom" : "t_49,t_51"
    },
    {
      "pad_r" : 1,
      "fused_relu" : 0,
      "fused_tanh" : 0,
      "debug_info" : "",
      "pad_fill_mode" : 0,
      "pad_b" : 1,
      "pad_l" : 1,
      "top" : "t_53",
      "blob_weights" : 79,
      "K" : 128,
      "blob_biases" : 77,
      "name" : "convolution_19",
      "has_batch_norm" : 0,
      "type" : "convolution",
      "n_groups" : 1,
      "pad_t" : 1,
      "has_biases" : 1,
      "C" : 16,
      "bottom" : "t_52",
      "weights" : {
      },
      "Nx" : 3,
      "pad_mode" : 0,
      "pad_value" : 0,
      "Ny" : 3,
      "n_parallel" : 1
    },
    {
      "bottom" : "t_53",
      "weights" : {
      },
      "mode" : 0,
      "debug_info" : "",
      "top" : "t_54",
      "type" : "activation",
      "name" : "activation_17"
    },
    {
      "weights" : {
      },
      "debug_info" : "",
      "top" : "t_55",
      "type" : "concat",
      "name" : "concat_14",
      "bottom" : "t_52,t_54"
    },
    {
      "pad_r" : 0,
      "fused_relu" : 0,
      "fused_tanh" : 0,
      "debug_info" : "",
      "pad_fill_mode" : 0,
      "pad_b" : 0,
      "pad_l" : 0,
      "top" : "t_56",
      "blob_weights" : 83,
      "K" : 144,
      "blob_biases" : 81,
      "name" : "convolution_20",
      "has_batch_norm" : 0,
      "type" : "convolution",
      "n_groups" : 1,
      "pad_t" : 0,
      "has_biases" : 1,
      "C" : 64,
      "bottom" : "t_55",
      "weights" : {
      },
      "Nx" : 1,
      "pad_mode" : 0,
      "pad_value" : 0,
      "Ny" : 1,
      "n_parallel" : 1
    },
    {
      "bottom" : "t_56,t_40",
      "alpha" : 1,
      "operation" : 0,
      "weights" : {
      },
      "fused_relu" : 0,
      "debug_info" : "",
      "top" : "t_57",
      "type" : "elementwise",
      "name" : "elementwise_2",
      "beta" : 0,
      "attributes" : {
        "is_output" : 1
      }
    },
    {
      "pad_r" : 1,
      "fused_relu" : 0,
      "fused_tanh" : 0,
      "debug_info" : "",
      "pad_fill_mode" : 0,
      "pad_b" : 1,
      "pad_l" : 1,
      "top" : "t_58",
      "blob_weights" : 87,
      "K" : 64,
      "blob_biases" : 85,
      "stride_x" : 2,
      "name" : "convolution_21",
      "has_batch_norm" : 0,
      "type" : "convolution",
      "n_groups" : 1,
      "pad_t" : 1,
      "stride_y" : 2,
      "has_biases" : 1,
      "C" : 96,
      "bottom" : "t_57",
      "weights" : {
      },
      "Nx" : 3,
      "pad_mode" : 0,
      "pad_value" : 0,
      "Ny" : 3,
      "n_parallel" : 1
    },
    {
      "alpha" : 0.10000000149011612,
      "bottom" : "t_58",
      "weights" : {
      },
      "mode" : 2,
      "debug_info" : "",
      "top" : "t_59",
      "type" : "activation",
      "name" : "activation_18"
    },
    {
      "pad_r" : 1,
      "fused_relu" : 0,
      "fused_tanh" : 0,
      "debug_info" : "",
      "pad_fill_mode" : 0,
      "pad_b" : 1,
      "pad_l" : 1,
      "top" : "t_60",
      "blob_weights" : 91,
      "K" : 96,
      "blob_biases" : 89,
      "name" : "convolution_22",
      "has_batch_norm" : 0,
      "type" : "convolution",
      "n_groups" : 1,
      "pad_t" : 1,
      "has_biases" : 1,
      "C" : 16,
      "bottom" : "t_59",
      "weights" : {
      },
      "Nx" : 3,
      "pad_mode" : 0,
      "pad_value" : 0,
      "Ny" : 3,
      "n_parallel" : 1
    },
    {
      "bottom" : "t_60",
      "weights" : {
      },
      "mode" : 0,
      "debug_info" : "",
      "top" : "t_61",
      "type" : "activation",
      "name" : "activation_19"
    },
    {
      "weights" : {
      },
      "debug_info" : "",
      "top" : "t_62",
      "type" : "concat",
      "name" : "concat_15",
      "bottom" : "t_59,t_61"
    },
    {
      "pad_r" : 1,
      "fused_relu" : 0,
      "fused_tanh" : 0,
      "debug_info" : "",
      "pad_fill_mode" : 0,
      "pad_b" : 1,
      "pad_l" : 1,
      "top" : "t_63",
      "blob_weights" : 95,
      "K" : 112,
      "blob_biases" : 93,
      "name" : "convolution_23",
      "has_batch_norm" : 0,
      "type" : "convolution",
      "n_groups" : 1,
      "pad_t" : 1,
      "has_biases" : 1,
      "C" : 16,
      "bottom" : "t_62",
      "weights" : {
      },
      "Nx" : 3,
      "pad_mode" : 0,
      "pad_value" : 0,
      "Ny" : 3,
      "n_parallel" : 1
    },
    {
      "bottom" : "t_63",
      "weights" : {
      },
      "mode" : 0,
      "debug_info" : "",
      "top" : "t_64",
      "type" : "activation",
      "name" : "activation_20"
    },
    {
      "weights" : {
      },
      "debug_info" : "",
      "top" : "t_65",
      "type" : "concat",
      "name" : "concat_16",
      "bottom" : "t_62,t_64"
    },
    {
      "pad_r" : 1,
      "fused_relu" : 0,
      "fused_tanh" : 0,
      "debug_info" : "",
      "pad_fill_mode" : 0,
      "pad_b" : 1,
      "pad_l" : 1,
      "top" : "t_66",
      "blob_weights" : 99,
      "K" : 128,
      "blob_biases" : 97,
      "name" : "convolution_24",
      "has_batch_norm" : 0,
      "type" : "convolution",
      "n_groups" : 1,
      "pad_t" : 1,
      "has_biases" : 1,
      "C" : 16,
      "bottom" : "t_65",
      "weights" : {
      },
      "Nx" : 3,
      "pad_mode" : 0,
      "pad_value" : 0,
      "Ny" : 3,
      "n_parallel" : 1
    },
    {
      "bottom" : "t_66",
      "weights" : {
      },
      "mode" : 0,
      "debug_info" : "",
      "top" : "t_67",
      "type" : "activation",
      "name" : "activation_21"
    },
    {
      "weights" : {
      },
      "debug_info" : "",
      "top" : "t_68",
      "type" : "concat",
      "name" : "concat_17",
      "bottom" : "t_65,t_67"
    },
    {
      "pad_r" : 1,
      "fused_relu" : 0,
      "fused_tanh" : 0,
      "debug_info" : "",
      "pad_fill_mode" : 0,
      "pad_b" : 1,
      "pad_l" : 1,
      "top" : "t_69",
      "blob_weights" : 103,
      "K" : 144,
      "blob_biases" : 101,
      "name" : "convolution_25",
      "has_batch_norm" : 0,
      "type" : "convolution",
      "n_groups" : 1,
      "pad_t" : 1,
      "has_biases" : 1,
      "C" : 16,
      "bottom" : "t_68",
      "weights" : {
      },
      "Nx" : 3,
      "pad_mode" : 0,
      "pad_value" : 0,
      "Ny" : 3,
      "n_parallel" : 1
    },
    {
      "bottom" : "t_69",
      "weights" : {
      },
      "mode" : 0,
      "debug_info" : "",
      "top" : "t_70",
      "type" : "activation",
      "name" : "activation_22"
    },
    {
      "weights" : {
      },
      "debug_info" : "",
      "top" : "t_71",
      "type" : "concat",
      "name" : "concat_18",
      "bottom" : "t_68,t_70"
    },
    {
      "pad_r" : 1,
      "fused_relu" : 0,
      "fused_tanh" : 0,
      "debug_info" : "",
      "pad_fill_mode" : 0,
      "pad_b" : 1,
      "pad_l" : 1,
      "top" : "t_72",
      "blob_weights" : 107,
      "K" : 160,
      "blob_biases" : 105,
      "name" : "convolution_26",
      "has_batch_norm" : 0,
      "type" : "convolution",
      "n_groups" : 1,
      "pad_t" : 1,
      "has_biases" : 1,
      "C" : 16,
      "bottom" : "t_71",
      "weights" : {
      },
      "Nx" : 3,
      "pad_mode" : 0,
      "pad_value" : 0,
      "Ny" : 3,
      "n_parallel" : 1
    },
    {
      "bottom" : "t_72",
      "weights" : {
      },
      "mode" : 0,
      "debug_info" : "",
      "top" : "t_73",
      "type" : "activation",
      "name" : "activation_23"
    },
    {
      "weights" : {
      },
      "debug_info" : "",
      "top" : "t_74",
      "type" : "concat",
      "name" : "concat_19",
      "bottom" : "t_71,t_73"
    },
    {
      "pad_r" : 0,
      "fused_relu" : 0,
      "fused_tanh" : 0,
      "debug_info" : "",
      "pad_fill_mode" : 0,
      "pad_b" : 0,
      "pad_l" : 0,
      "top" : "t_75",
      "blob_weights" : 111,
      "K" : 176,
      "blob_biases" : 109,
      "name" : "convolution_27",
      "has_batch_norm" : 0,
      "type" : "convolution",
      "n_groups" : 1,
      "pad_t" : 0,
      "has_biases" : 1,
      "C" : 96,
      "bottom" : "t_74",
      "weights" : {
      },
      "Nx" : 1,
      "pad_mode" : 0,
      "pad_value" : 0,
      "Ny" : 1,
      "n_parallel" : 1
    },
    {
      "bottom" : "t_75,t_59",
      "alpha" : 1,
      "operation" : 0,
      "weights" : {
      },
      "fused_relu" : 0,
      "debug_info" : "",
      "top" : "t_76",
      "type" : "elementwise",
      "name" : "elementwise_3",
      "beta" : 0,
      "attributes" : {
        "is_output" : 1
      }
    },
    {
      "pad_r" : 1,
      "fused_relu" : 0,
      "fused_tanh" : 0,
      "debug_info" : "",
      "pad_fill_mode" : 0,
      "pad_b" : 1,
      "pad_l" : 1,
      "top" : "t_77",
      "blob_weights" : 115,
      "K" : 96,
      "blob_biases" : 113,
      "stride_x" : 2,
      "name" : "convolution_28",
      "has_batch_norm" : 0,
      "type" : "convolution",
      "n_groups" : 1,
      "pad_t" : 1,
      "stride_y" : 2,
      "has_biases" : 1,
      "C" : 128,
      "bottom" : "t_76",
      "weights" : {
      },
      "Nx" : 3,
      "pad_mode" : 0,
      "pad_value" : 0,
      "Ny" : 3,
      "n_parallel" : 1
    },
    {
      "alpha" : 0.10000000149011612,
      "bottom" : "t_77",
      "weights" : {
      },
      "mode" : 2,
      "debug_info" : "",
      "top" : "t_78",
      "type" : "activation",
      "name" : "activation_24"
    },
    {
      "pad_r" : 1,
      "fused_relu" : 0,
      "fused_tanh" : 0,
      "debug_info" : "",
      "pad_fill_mode" : 0,
      "pad_b" : 1,
      "pad_l" : 1,
      "top" : "t_79",
      "blob_weights" : 119,
      "K" : 128,
      "blob_biases" : 117,
      "name" : "convolution_29",
      "has_batch_norm" : 0,
      "type" : "convolution",
      "n_groups" : 1,
      "pad_t" : 1,
      "has_biases" : 1,
      "C" : 16,
      "bottom" : "t_78",
      "weights" : {
      },
      "Nx" : 3,
      "pad_mode" : 0,
      "pad_value" : 0,
      "Ny" : 3,
      "n_parallel" : 1
    },
    {
      "bottom" : "t_79",
      "weights" : {
      },
      "mode" : 0,
      "debug_info" : "",
      "top" : "t_80",
      "type" : "activation",
      "name" : "activation_25"
    },
    {
      "weights" : {
      },
      "debug_info" : "",
      "top" : "t_81",
      "type" : "concat",
      "name" : "concat_20",
      "bottom" : "t_78,t_80"
    },
    {
      "pad_r" : 1,
      "fused_relu" : 0,
      "fused_tanh" : 0,
      "debug_info" : "",
      "pad_fill_mode" : 0,
      "pad_b" : 1,
      "pad_l" : 1,
      "top" : "t_82",
      "blob_weights" : 123,
      "K" : 144,
      "blob_biases" : 121,
      "name" : "convolution_30",
      "has_batch_norm" : 0,
      "type" : "convolution",
      "n_groups" : 1,
      "pad_t" : 1,
      "has_biases" : 1,
      "C" : 16,
      "bottom" : "t_81",
      "weights" : {
      },
      "Nx" : 3,
      "pad_mode" : 0,
      "pad_value" : 0,
      "Ny" : 3,
      "n_parallel" : 1
    },
    {
      "bottom" : "t_82",
      "weights" : {
      },
      "mode" : 0,
      "debug_info" : "",
      "top" : "t_83",
      "type" : "activation",
      "name" : "activation_26"
    },
    {
      "weights" : {
      },
      "debug_info" : "",
      "top" : "t_84",
      "type" : "concat",
      "name" : "concat_21",
      "bottom" : "t_81,t_83"
    },
    {
      "pad_r" : 1,
      "fused_relu" : 0,
      "fused_tanh" : 0,
      "debug_info" : "",
      "pad_fill_mode" : 0,
      "pad_b" : 1,
      "pad_l" : 1,
      "top" : "t_85",
      "blob_weights" : 127,
      "K" : 160,
      "blob_biases" : 125,
      "name" : "convolution_31",
      "has_batch_norm" : 0,
      "type" : "convolution",
      "n_groups" : 1,
      "pad_t" : 1,
      "has_biases" : 1,
      "C" : 16,
      "bottom" : "t_84",
      "weights" : {
      },
      "Nx" : 3,
      "pad_mode" : 0,
      "pad_value" : 0,
      "Ny" : 3,
      "n_parallel" : 1
    },
    {
      "bottom" : "t_85",
      "weights" : {
      },
      "mode" : 0,
      "debug_info" : "",
      "top" : "t_86",
      "type" : "activation",
      "name" : "activation_27"
    },
    {
      "weights" : {
      },
      "debug_info" : "",
      "top" : "t_87",
      "type" : "concat",
      "name" : "concat_22",
      "bottom" : "t_84,t_86"
    },
    {
      "pad_r" : 1,
      "fused_relu" : 0,
      "fused_tanh" : 0,
      "debug_info" : "",
      "pad_fill_mode" : 0,
      "pad_b" : 1,
      "pad_l" : 1,
      "top" : "t_88",
      "blob_weights" : 131,
      "K" : 176,
      "blob_biases" : 129,
      "name" : "convolution_32",
      "has_batch_norm" : 0,
      "type" : "convolution",
      "n_groups" : 1,
      "pad_t" : 1,
      "has_biases" : 1,
      "C" : 16,
      "bottom" : "t_87",
      "weights" : {
      },
      "Nx" : 3,
      "pad_mode" : 0,
      "pad_value" : 0,
      "Ny" : 3,
      "n_parallel" : 1
    },
    {
      "bottom" : "t_88",
      "weights" : {
      },
      "mode" : 0,
      "debug_info" : "",
      "top" : "t_89",
      "type" : "activation",
      "name" : "activation_28"
    },
    {
      "weights" : {
      },
      "debug_info" : "",
      "top" : "t_90",
      "type" : "concat",
      "name" : "concat_23",
      "bottom" : "t_87,t_89"
    },
    {
      "pad_r" : 1,
      "fused_relu" : 0,
      "fused_tanh" : 0,
      "debug_info" : "",
      "pad_fill_mode" : 0,
      "pad_b" : 1,
      "pad_l" : 1,
      "top" : "t_91",
      "blob_weights" : 135,
      "K" : 192,
      "blob_biases" : 133,
      "name" : "convolution_33",
      "has_batch_norm" : 0,
      "type" : "convolution",
      "n_groups" : 1,
      "pad_t" : 1,
      "has_biases" : 1,
      "C" : 16,
      "bottom" : "t_90",
      "weights" : {
      },
      "Nx" : 3,
      "pad_mode" : 0,
      "pad_value" : 0,
      "Ny" : 3,
      "n_parallel" : 1
    },
    {
      "bottom" : "t_91",
      "weights" : {
      },
      "mode" : 0,
      "debug_info" : "",
      "top" : "t_92",
      "type" : "activation",
      "name" : "activation_29"
    },
    {
      "weights" : {
      },
      "debug_info" : "",
      "top" : "t_93",
      "type" : "concat",
      "name" : "concat_24",
      "bottom" : "t_90,t_92"
    },
    {
      "pad_r" : 0,
      "fused_relu" : 0,
      "fused_tanh" : 0,
      "debug_info" : "",
      "pad_fill_mode" : 0,
      "pad_b" : 0,
      "pad_l" : 0,
      "top" : "t_94",
      "blob_weights" : 139,
      "K" : 208,
      "blob_biases" : 137,
      "name" : "convolution_34",
      "has_batch_norm" : 0,
      "type" : "convolution",
      "n_groups" : 1,
      "pad_t" : 0,
      "has_biases" : 1,
      "C" : 128,
      "bottom" : "t_93",
      "weights" : {
      },
      "Nx" : 1,
      "pad_mode" : 0,
      "pad_value" : 0,
      "Ny" : 1,
      "n_parallel" : 1
    },
    {
      "bottom" : "t_94,t_78",
      "alpha" : 1,
      "operation" : 0,
      "weights" : {
      },
      "fused_relu" : 0,
      "debug_info" : "",
      "top" : "t_95",
      "type" : "elementwise",
      "name" : "elementwise_4",
      "beta" : 0,
      "attributes" : {
        "is_output" : 1
      }
    },
    {
      "pad_r" : 1,
      "fused_relu" : 0,
      "fused_tanh" : 0,
      "debug_info" : "",
      "pad_fill_mode" : 0,
      "pad_b" : 1,
      "pad_l" : 1,
      "top" : "t_96",
      "blob_weights" : 143,
      "K" : 128,
      "blob_biases" : 141,
      "stride_x" : 2,
      "name" : "convolution_35",
      "has_batch_norm" : 0,
      "type" : "convolution",
      "n_groups" : 1,
      "pad_t" : 1,
      "stride_y" : 2,
      "has_biases" : 1,
      "C" : 196,
      "bottom" : "t_95",
      "weights" : {
      },
      "Nx" : 3,
      "pad_mode" : 0,
      "pad_value" : 0,
      "Ny" : 3,
      "n_parallel" : 1
    },
    {
      "alpha" : 0.10000000149011612,
      "bottom" : "t_96",
      "weights" : {
      },
      "mode" : 2,
      "debug_info" : "",
      "top" : "t_97",
      "type" : "activation",
      "name" : "activation_30"
    },
    {
      "pad_r" : 1,
      "fused_relu" : 0,
      "fused_tanh" : 0,
      "debug_info" : "",
      "pad_fill_mode" : 0,
      "pad_b" : 1,
      "pad_l" : 1,
      "top" : "t_98",
      "blob_weights" : 147,
      "K" : 196,
      "blob_biases" : 145,
      "name" : "convolution_36",
      "has_batch_norm" : 0,
      "type" : "convolution",
      "n_groups" : 1,
      "pad_t" : 1,
      "has_biases" : 1,
      "C" : 16,
      "bottom" : "t_97",
      "weights" : {
      },
      "Nx" : 3,
      "pad_mode" : 0,
      "pad_value" : 0,
      "Ny" : 3,
      "n_parallel" : 1
    },
    {
      "bottom" : "t_98",
      "weights" : {
      },
      "mode" : 0,
      "debug_info" : "",
      "top" : "t_99",
      "type" : "activation",
      "name" : "activation_31"
    },
    {
      "weights" : {
      },
      "debug_info" : "",
      "top" : "t_100",
      "type" : "concat",
      "name" : "concat_25",
      "bottom" : "t_97,t_99"
    },
    {
      "pad_r" : 1,
      "fused_relu" : 0,
      "fused_tanh" : 0,
      "debug_info" : "",
      "pad_fill_mode" : 0,
      "pad_b" : 1,
      "pad_l" : 1,
      "top" : "t_101",
      "blob_weights" : 151,
      "K" : 212,
      "blob_biases" : 149,
      "name" : "convolution_37",
      "has_batch_norm" : 0,
      "type" : "convolution",
      "n_groups" : 1,
      "pad_t" : 1,
      "has_biases" : 1,
      "C" : 16,
      "bottom" : "t_100",
      "weights" : {
      },
      "Nx" : 3,
      "pad_mode" : 0,
      "pad_value" : 0,
      "Ny" : 3,
      "n_parallel" : 1
    },
    {
      "bottom" : "t_101",
      "weights" : {
      },
      "mode" : 0,
      "debug_info" : "",
      "top" : "t_102",
      "type" : "activation",
      "name" : "activation_32"
    },
    {
      "weights" : {
      },
      "debug_info" : "",
      "top" : "t_103",
      "type" : "concat",
      "name" : "concat_26",
      "bottom" : "t_100,t_102"
    },
    {
      "pad_r" : 1,
      "fused_relu" : 0,
      "fused_tanh" : 0,
      "debug_info" : "",
      "pad_fill_mode" : 0,
      "pad_b" : 1,
      "pad_l" : 1,
      "top" : "t_104",
      "blob_weights" : 155,
      "K" : 228,
      "blob_biases" : 153,
      "name" : "convolution_38",
      "has_batch_norm" : 0,
      "type" : "convolution",
      "n_groups" : 1,
      "pad_t" : 1,
      "has_biases" : 1,
      "C" : 16,
      "bottom" : "t_103",
      "weights" : {
      },
      "Nx" : 3,
      "pad_mode" : 0,
      "pad_value" : 0,
      "Ny" : 3,
      "n_parallel" : 1
    },
    {
      "bottom" : "t_104",
      "weights" : {
      },
      "mode" : 0,
      "debug_info" : "",
      "top" : "t_105",
      "type" : "activation",
      "name" : "activation_33"
    },
    {
      "weights" : {
      },
      "debug_info" : "",
      "top" : "t_106",
      "type" : "concat",
      "name" : "concat_27",
      "bottom" : "t_103,t_105"
    },
    {
      "pad_r" : 1,
      "fused_relu" : 0,
      "fused_tanh" : 0,
      "debug_info" : "",
      "pad_fill_mode" : 0,
      "pad_b" : 1,
      "pad_l" : 1,
      "top" : "t_107",
      "blob_weights" : 159,
      "K" : 244,
      "blob_biases" : 157,
      "name" : "convolution_39",
      "has_batch_norm" : 0,
      "type" : "convolution",
      "n_groups" : 1,
      "pad_t" : 1,
      "has_biases" : 1,
      "C" : 16,
      "bottom" : "t_106",
      "weights" : {
      },
      "Nx" : 3,
      "pad_mode" : 0,
      "pad_value" : 0,
      "Ny" : 3,
      "n_parallel" : 1
    },
    {
      "bottom" : "t_107",
      "weights" : {
      },
      "mode" : 0,
      "debug_info" : "",
      "top" : "t_108",
      "type" : "activation",
      "name" : "activation_34"
    },
    {
      "weights" : {
      },
      "debug_info" : "",
      "top" : "t_109",
      "type" : "concat",
      "name" : "concat_28",
      "bottom" : "t_106,t_108"
    },
    {
      "pad_r" : 1,
      "fused_relu" : 0,
      "fused_tanh" : 0,
      "debug_info" : "",
      "pad_fill_mode" : 0,
      "pad_b" : 1,
      "pad_l" : 1,
      "top" : "t_110",
      "blob_weights" : 163,
      "K" : 260,
      "blob_biases" : 161,
      "name" : "convolution_40",
      "has_batch_norm" : 0,
      "type" : "convolution",
      "n_groups" : 1,
      "pad_t" : 1,
      "has_biases" : 1,
      "C" : 16,
      "bottom" : "t_109",
      "weights" : {
      },
      "Nx" : 3,
      "pad_mode" : 0,
      "pad_value" : 0,
      "Ny" : 3,
      "n_parallel" : 1
    },
    {
      "bottom" : "t_110",
      "weights" : {
      },
      "mode" : 0,
      "debug_info" : "",
      "top" : "t_111",
      "type" : "activation",
      "name" : "activation_35"
    },
    {
      "weights" : {
      },
      "debug_info" : "",
      "top" : "t_112",
      "type" : "concat",
      "name" : "concat_29",
      "bottom" : "t_109,t_111"
    },
    {
      "pad_r" : 0,
      "fused_relu" : 0,
      "fused_tanh" : 0,
      "debug_info" : "",
      "pad_fill_mode" : 0,
      "pad_b" : 0,
      "pad_l" : 0,
      "top" : "t_113",
      "blob_weights" : 167,
      "K" : 276,
      "blob_biases" : 165,
      "name" : "convolution_41",
      "has_batch_norm" : 0,
      "type" : "convolution",
      "n_groups" : 1,
      "pad_t" : 0,
      "has_biases" : 1,
      "C" : 196,
      "bottom" : "t_112",
      "weights" : {
      },
      "Nx" : 1,
      "pad_mode" : 0,
      "pad_value" : 0,
      "Ny" : 1,
      "n_parallel" : 1
    },
    {
      "bottom" : "t_113,t_97",
      "alpha" : 1,
      "operation" : 0,
      "weights" : {
      },
      "fused_relu" : 0,
      "debug_info" : "",
      "top" : "t_114",
      "type" : "elementwise",
      "name" : "elementwise_5",
      "beta" : 0,
      "attributes" : {
        "is_output" : 1
      }
    }
