  "storage" : "flow_estimation_3.espresso.weights",
  "analyses" : {
  },
  "properties" : {
  },
 "configurations" : {
    "square_320x320" : {
      "input_shapes" : {
        "t_0" : {
          "k" : 64,
          "w" : 40,
          "n" : 1,
          "h" : 40
        },
        "t_1" : {
          "k" : 81,
          "w" : 40,
          "n" : 1,
          "h" : 40
        },
        "t_2" : {
          "k" : 2,
          "w" : 40,
          "n" : 1,
          "h" : 40
        }
      }
    },
    "portrait_320x448" : {
      "input_shapes" : {
        "t_0" : {
          "k" : 64,
          "w" : 40,
          "n" : 1,
          "h" : 56
        },
        "t_1" : {
          "k" : 81,
          "w" : 40,
          "n" : 1,
          "h" : 56
        },
        "t_2" : {
          "k" : 2,
          "w" : 40,
          "n" : 1,
          "h" : 56
        }
      }
    },
    "landscape_448x320" : {
      "input_shapes" : {
        "t_0" : {
          "k" : 64,
          "w" : 56,
          "n" : 1,
          "h" : 40
        },
        "t_1" : {
          "k" : 81,
          "w" : 56,
          "n" : 1,
          "h" : 40
        },
        "t_2" : {
          "k" : 2,
          "w" : 56,
          "n" : 1,
          "h" : 40
        }
      }
    },
    "landscape_1024x432" : {
      "input_shapes" : {
        "t_0" : {
          "k" : 64,
          "w" : 128,
          "n" : 1,
          "h" : 54
        },
        "t_1" : {
          "k" : 81,
          "w" : 128,
          "n" : 1,
          "h" : 54
        },
        "t_2" : {
          "k" : 2,
          "w" : 128,
          "n" : 1,
          "h" : 54
        }
      }
    }
  },
  "format_version" : 200,
  "layers" : [
    {
      "alpha" : 0.10000000149011612,
      "bottom" : "t_1",
      "weights" : {
      },
      "mode" : 2,
      "debug_info" : "",
      "top" : "t_3",
      "type" : "activation",
      "name" : "activation_0"
    },
    {
      "pad_r" : 0,
      "fused_relu" : 0,
      "fused_tanh" : 0,
      "debug_info" : "",
      "pad_fill_mode" : 0,
      "pad_b" : 0,
      "pad_l" : 0,
      "top" : "t_4",
      "blob_weights" : 3,
      "K" : 64,
      "blob_biases" : 1,
      "name" : "convolution_0",
      "has_batch_norm" : 0,
      "type" : "convolution",
      "n_groups" : 1,
      "pad_t" : 0,
      "has_biases" : 1,
      "C" : 32,
      "bottom" : "t_0",
      "weights" : {
      },
      "Nx" : 1,
      "pad_mode" : 0,
      "pad_value" : 0,
      "Ny" : 1,
      "n_parallel" : 1
    },
    {
      "alpha" : 0.10000000149011612,
      "bottom" : "t_4",
      "weights" : {
      },
      "mode" : 2,
      "debug_info" : "",
      "top" : "t_5",
      "type" : "activation",
      "name" : "activation_1"
    },
    {
      "weights" : {
      },
      "debug_info" : "",
      "top" : "t_6",
      "type" : "concat",
      "name" : "concat_0",
      "bottom" : "t_3,t_5,t_2"
    },
    {
      "pad_r" : 1,
      "fused_relu" : 0,
      "fused_tanh" : 0,
      "debug_info" : "",
      "pad_fill_mode" : 0,
      "pad_b" : 1,
      "pad_l" : 1,
      "top" : "t_7",
      "blob_weights" : 7,
      "K" : 115,
      "blob_biases" : 5,
      "name" : "convolution_1",
      "has_batch_norm" : 0,
      "type" : "convolution",
      "n_groups" : 1,
      "pad_t" : 1,
      "has_biases" : 1,
      "C" : 128,
      "bottom" : "t_6",
      "weights" : {
      },
      "Nx" : 3,
      "pad_mode" : 0,
      "pad_value" : 0,
      "Ny" : 3,
      "n_parallel" : 1
    },
    {
      "alpha" : 0.10000000149011612,
      "bottom" : "t_7",
      "weights" : {
      },
      "mode" : 2,
      "debug_info" : "",
      "top" : "t_8",
      "type" : "activation",
      "name" : "activation_2"
    },
    {
      "weights" : {
      },
      "debug_info" : "",
      "top" : "t_9",
      "type" : "concat",
      "name" : "concat_1",
      "bottom" : "t_8,t_6"
    },
    {
      "pad_r" : 1,
      "fused_relu" : 0,
      "fused_tanh" : 0,
      "debug_info" : "",
      "pad_fill_mode" : 0,
      "pad_b" : 1,
      "pad_l" : 1,
      "top" : "t_10",
      "blob_weights" : 11,
      "K" : 243,
      "blob_biases" : 9,
      "name" : "convolution_2",
      "has_batch_norm" : 0,
      "type" : "convolution",
      "n_groups" : 1,
      "pad_t" : 1,
      "has_biases" : 1,
      "C" : 128,
      "bottom" : "t_9",
      "weights" : {
      },
      "Nx" : 3,
      "pad_mode" : 0,
      "pad_value" : 0,
      "Ny" : 3,
      "n_parallel" : 1
    },
    {
      "alpha" : 0.10000000149011612,
      "bottom" : "t_10",
      "weights" : {
      },
      "mode" : 2,
      "debug_info" : "",
      "top" : "t_11",
      "type" : "activation",
      "name" : "activation_3"
    },
    {
      "weights" : {
      },
      "debug_info" : "",
      "top" : "t_12",
      "type" : "concat",
      "name" : "concat_2",
      "bottom" : "t_11,t_9"
    },
    {
      "pad_r" : 1,
      "fused_relu" : 0,
      "fused_tanh" : 0,
      "debug_info" : "",
      "pad_fill_mode" : 0,
      "pad_b" : 1,
      "pad_l" : 1,
      "top" : "t_13",
      "blob_weights" : 15,
      "K" : 371,
      "blob_biases" : 13,
      "name" : "convolution_3",
      "has_batch_norm" : 0,
      "type" : "convolution",
      "n_groups" : 1,
      "pad_t" : 1,
      "has_biases" : 1,
      "C" : 96,
      "bottom" : "t_12",
      "weights" : {
      },
      "Nx" : 3,
      "pad_mode" : 0,
      "pad_value" : 0,
      "Ny" : 3,
      "n_parallel" : 1
    },
    {
      "alpha" : 0.10000000149011612,
      "bottom" : "t_13",
      "weights" : {
      },
      "mode" : 2,
      "debug_info" : "",
      "top" : "t_14",
      "type" : "activation",
      "name" : "activation_4"
    },
    {
      "weights" : {
      },
      "debug_info" : "",
      "top" : "t_15",
      "type" : "concat",
      "name" : "concat_3",
      "bottom" : "t_14,t_12"
    },
    {
      "pad_r" : 1,
      "fused_relu" : 0,
      "fused_tanh" : 0,
      "debug_info" : "",
      "pad_fill_mode" : 0,
      "pad_b" : 1,
      "pad_l" : 1,
      "top" : "t_16",
      "blob_weights" : 19,
      "K" : 467,
      "blob_biases" : 17,
      "name" : "convolution_4",
      "has_batch_norm" : 0,
      "type" : "convolution",
      "n_groups" : 1,
      "pad_t" : 1,
      "has_biases" : 1,
      "C" : 64,
      "bottom" : "t_15",
      "weights" : {
      },
      "Nx" : 3,
      "pad_mode" : 0,
      "pad_value" : 0,
      "Ny" : 3,
      "n_parallel" : 1
    },
    {
      "alpha" : 0.10000000149011612,
      "bottom" : "t_16",
      "weights" : {
      },
      "mode" : 2,
      "debug_info" : "",
      "top" : "t_17",
      "type" : "activation",
      "name" : "activation_5"
    },
    {
      "weights" : {
      },
      "debug_info" : "",
      "top" : "t_18",
      "type" : "concat",
      "name" : "concat_4",
      "bottom" : "t_17,t_15"
    },
    {
      "pad_r" : 1,
      "fused_relu" : 0,
      "fused_tanh" : 0,
      "debug_info" : "",
      "pad_fill_mode" : 0,
      "pad_b" : 1,
      "pad_l" : 1,
      "top" : "t_19",
      "blob_weights" : 23,
      "K" : 531,
      "blob_biases" : 21,
      "name" : "convolution_5",
      "has_batch_norm" : 0,
      "type" : "convolution",
      "n_groups" : 1,
      "pad_t" : 1,
      "has_biases" : 1,
      "C" : 32,
      "bottom" : "t_18",
      "weights" : {
      },
      "Nx" : 3,
      "pad_mode" : 0,
      "pad_value" : 0,
      "Ny" : 3,
      "n_parallel" : 1
    },
    {
      "alpha" : 0.10000000149011612,
      "bottom" : "t_19",
      "weights" : {
      },
      "mode" : 2,
      "debug_info" : "",
      "top" : "t_20",
      "type" : "activation",
      "name" : "activation_6"
    },
    {
      "weights" : {
      },
      "debug_info" : "",
      "top" : "t_21",
      "type" : "concat",
      "name" : "concat_5",
      "bottom" : "t_20,t_18"
    },
    {
      "pad_r" : 1,
      "fused_relu" : 0,
      "fused_tanh" : 0,
      "debug_info" : "",
      "pad_fill_mode" : 0,
      "pad_b" : 1,
      "pad_l" : 1,
      "top" : "t_22",
      "blob_weights" : 27,
      "K" : 563,
      "blob_biases" : 25,
      "name" : "convolution_6",
      "has_batch_norm" : 0,
      "type" : "convolution",
      "n_groups" : 1,
      "pad_t" : 1,
      "has_biases" : 1,
      "C" : 2,
      "bottom" : "t_21",
      "weights" : {
      },
      "Nx" : 3,
      "pad_mode" : 0,
      "pad_value" : 0,
      "Ny" : 3,
      "n_parallel" : 1
    },
    {
      "bottom" : "t_2,t_22",
      "alpha" : 1,
      "operation" : 0,
      "weights" : {
      },
      "fused_relu" : 0,
      "debug_info" : "",
      "top" : "t_23",
      "type" : "elementwise",
      "name" : "elementwise_0",
      "beta" : 0
    },
    {
      "weights" : {
      },
      "debug_info" : "",
      "top" : "t_24",
      "type" : "concat",
      "name" : "concat_6",
      "bottom" : "t_21,t_23"
    },
    {
      "pad_r" : 1,
      "fused_relu" : 0,
      "fused_tanh" : 0,
      "debug_info" : "",
      "pad_fill_mode" : 0,
      "pad_b" : 1,
      "pad_l" : 1,
      "top" : "t_25",
      "blob_weights" : 31,
      "K" : 565,
      "blob_biases" : 29,
      "name" : "convolution_7",
      "has_batch_norm" : 0,
      "type" : "convolution",
      "n_groups" : 1,
      "pad_t" : 1,
      "has_biases" : 1,
      "C" : 128,
      "bottom" : "t_24",
      "weights" : {
      },
      "Nx" : 3,
      "pad_mode" : 0,
      "pad_value" : 0,
      "Ny" : 3,
      "n_parallel" : 1
    },
    {
      "alpha" : 0.10000000149011612,
      "bottom" : "t_25",
      "weights" : {
      },
      "mode" : 2,
      "debug_info" : "",
      "top" : "t_26",
      "type" : "activation",
      "name" : "activation_7"
    },
    {
      "pad_r" : 2,
      "fused_relu" : 0,
      "fused_tanh" : 0,
      "debug_info" : "",
      "pad_fill_mode" : 0,
      "pad_b" : 2,
      "pad_l" : 2,
      "top" : "t_27",
      "blob_weights" : 35,
      "K" : 128,
      "blob_biases" : 33,
      "name" : "convolution_8",
      "has_batch_norm" : 0,
      "type" : "convolution",
      "n_groups" : 1,
      "pad_t" : 2,
      "has_biases" : 1,
      "C" : 128,
      "bottom" : "t_26",
      "weights" : {
      },
      "Nx" : 3,
      "pad_mode" : 0,
      "dilation_x" : 2,
      "pad_value" : 0,
      "Ny" : 3,
      "n_parallel" : 1,
      "dilation_y" : 2
    },
    {
      "alpha" : 0.10000000149011612,
      "bottom" : "t_27",
      "weights" : {
      },
      "mode" : 2,
      "debug_info" : "",
      "top" : "t_28",
      "type" : "activation",
      "name" : "activation_8"
    },
    {
      "pad_r" : 4,
      "fused_relu" : 0,
      "fused_tanh" : 0,
      "debug_info" : "",
      "pad_fill_mode" : 0,
      "pad_b" : 4,
      "pad_l" : 4,
      "top" : "t_29",
      "blob_weights" : 39,
      "K" : 128,
      "blob_biases" : 37,
      "name" : "convolution_9",
      "has_batch_norm" : 0,
      "type" : "convolution",
      "n_groups" : 1,
      "pad_t" : 4,
      "has_biases" : 1,
      "C" : 128,
      "bottom" : "t_28",
      "weights" : {
      },
      "Nx" : 3,
      "pad_mode" : 0,
      "dilation_x" : 4,
      "pad_value" : 0,
      "Ny" : 3,
      "n_parallel" : 1,
      "dilation_y" : 4
    },
    {
      "alpha" : 0.10000000149011612,
      "bottom" : "t_29",
      "weights" : {
      },
      "mode" : 2,
      "debug_info" : "",
      "top" : "t_30",
      "type" : "activation",
      "name" : "activation_9"
    },
    {
      "pad_r" : 4,
      "fused_relu" : 0,
      "fused_tanh" : 0,
      "debug_info" : "",
      "pad_fill_mode" : 0,
      "pad_b" : 4,
      "pad_l" : 4,
      "top" : "t_31",
      "blob_weights" : 43,
      "K" : 128,
      "blob_biases" : 41,
      "name" : "convolution_10",
      "has_batch_norm" : 0,
      "type" : "convolution",
      "n_groups" : 1,
      "pad_t" : 4,
      "has_biases" : 1,
      "C" : 96,
      "bottom" : "t_30",
      "weights" : {
      },
      "Nx" : 3,
      "pad_mode" : 0,
      "dilation_x" : 4,
      "pad_value" : 0,
      "Ny" : 3,
      "n_parallel" : 1,
      "dilation_y" : 4
    },
    {
      "alpha" : 0.10000000149011612,
      "bottom" : "t_31",
      "weights" : {
      },
      "mode" : 2,
      "debug_info" : "",
      "top" : "t_32",
      "type" : "activation",
      "name" : "activation_10"
    },
    {
      "pad_r" : 4,
      "fused_relu" : 0,
      "fused_tanh" : 0,
      "debug_info" : "",
      "pad_fill_mode" : 0,
      "pad_b" : 4,
      "pad_l" : 4,
      "top" : "t_33",
      "blob_weights" : 47,
      "K" : 96,
      "blob_biases" : 45,
      "name" : "convolution_11",
      "has_batch_norm" : 0,
      "type" : "convolution",
      "n_groups" : 1,
      "pad_t" : 4,
      "has_biases" : 1,
      "C" : 64,
      "bottom" : "t_32",
      "weights" : {
      },
      "Nx" : 3,
      "pad_mode" : 0,
      "dilation_x" : 4,
      "pad_value" : 0,
      "Ny" : 3,
      "n_parallel" : 1,
      "dilation_y" : 4
    },
    {
      "alpha" : 0.10000000149011612,
      "bottom" : "t_33",
      "weights" : {
      },
      "mode" : 2,
      "debug_info" : "",
      "top" : "t_34",
      "type" : "activation",
      "name" : "activation_11"
    },
    {
      "pad_r" : 1,
      "fused_relu" : 0,
      "fused_tanh" : 0,
      "debug_info" : "",
      "pad_fill_mode" : 0,
      "pad_b" : 1,
      "pad_l" : 1,
      "top" : "t_35",
      "blob_weights" : 51,
      "K" : 64,
      "blob_biases" : 49,
      "name" : "convolution_12",
      "has_batch_norm" : 0,
      "type" : "convolution",
      "n_groups" : 1,
      "pad_t" : 1,
      "has_biases" : 1,
      "C" : 32,
      "bottom" : "t_34",
      "weights" : {
      },
      "Nx" : 3,
      "pad_mode" : 0,
      "pad_value" : 0,
      "Ny" : 3,
      "n_parallel" : 1
    },
    {
      "alpha" : 0.10000000149011612,
      "bottom" : "t_35",
      "weights" : {
      },
      "mode" : 2,
      "debug_info" : "",
      "top" : "t_36",
      "type" : "activation",
      "name" : "activation_12"
    },
    {
      "pad_r" : 1,
      "fused_relu" : 0,
      "fused_tanh" : 0,
      "debug_info" : "",
      "pad_fill_mode" : 0,
      "pad_b" : 1,
      "pad_l" : 1,
      "top" : "t_37",
      "blob_weights" : 55,
      "K" : 32,
      "blob_biases" : 53,
      "name" : "convolution_13",
      "has_batch_norm" : 0,
      "type" : "convolution",
      "n_groups" : 1,
      "pad_t" : 1,
      "has_biases" : 1,
      "C" : 2,
      "bottom" : "t_36",
      "weights" : {
      },
      "Nx" : 3,
      "pad_mode" : 0,
      "pad_value" : 0,
      "Ny" : 3,
      "n_parallel" : 1
    },
    {
      "bottom" : "t_23,t_37",
      "alpha" : 1,
      "operation" : 0,
      "weights" : {
      },
      "fused_relu" : 0,
      "debug_info" : "",
      "top" : "t_38",
      "type" : "elementwise",
      "name" : "elementwise_1",
      "beta" : 0
    }
